/Users/peterullrich/GoogleDrive/SoftwareDevelopment/RuG/Machine-Learning/venv/bin/python /Users/peterullrich/GoogleDrive/SoftwareDevelopment/RuG/Machine-Learning/training.py
Using Theano backend.
Loading model...
Found 960 images belonging to 3 classes.
Found 963 images belonging to 3 classes.
_________________________________________________________________
Layer (type)                 Output Shape              Param #   
=================================================================
conv2d_1 (Conv2D)            (None, 16, 128, 128)      448       
_________________________________________________________________
batch_normalization_1 (Batch (None, 16, 128, 128)      64        
_________________________________________________________________
p_re_lu_1 (PReLU)            (None, 16, 128, 128)      262144    
_________________________________________________________________
conv2d_2 (Conv2D)            (None, 16, 128, 128)      2320      
_________________________________________________________________
batch_normalization_2 (Batch (None, 16, 128, 128)      64        
_________________________________________________________________
p_re_lu_2 (PReLU)            (None, 16, 128, 128)      262144    
_________________________________________________________________
conv2d_3 (Conv2D)            (None, 16, 128, 128)      2320      
_________________________________________________________________
batch_normalization_3 (Batch (None, 16, 128, 128)      64        
_________________________________________________________________
p_re_lu_3 (PReLU)            (None, 16, 128, 128)      262144    
_________________________________________________________________
max_pooling2d_1 (MaxPooling2 (None, 16, 64, 64)        0         
_________________________________________________________________
conv2d_4 (Conv2D)            (None, 32, 64, 64)        4640      
_________________________________________________________________
batch_normalization_4 (Batch (None, 32, 64, 64)        128       
_________________________________________________________________
p_re_lu_4 (PReLU)            (None, 32, 64, 64)        131072    
_________________________________________________________________
conv2d_5 (Conv2D)            (None, 32, 64, 64)        9248      
_________________________________________________________________
batch_normalization_5 (Batch (None, 32, 64, 64)        128       
_________________________________________________________________
p_re_lu_5 (PReLU)            (None, 32, 64, 64)        131072    
_________________________________________________________________
conv2d_6 (Conv2D)            (None, 32, 64, 64)        9248      
_________________________________________________________________
batch_normalization_6 (Batch (None, 32, 64, 64)        128       
_________________________________________________________________
p_re_lu_6 (PReLU)            (None, 32, 64, 64)        131072    
_________________________________________________________________
max_pooling2d_2 (MaxPooling2 (None, 32, 32, 32)        0         
_________________________________________________________________
conv2d_7 (Conv2D)            (None, 64, 32, 32)        18496     
_________________________________________________________________
batch_normalization_7 (Batch (None, 64, 32, 32)        256       
_________________________________________________________________
p_re_lu_7 (PReLU)            (None, 64, 32, 32)        65536     
_________________________________________________________________
conv2d_8 (Conv2D)            (None, 64, 32, 32)        36928     
_________________________________________________________________
batch_normalization_8 (Batch (None, 64, 32, 32)        256       
_________________________________________________________________
p_re_lu_8 (PReLU)            (None, 64, 32, 32)        65536     
_________________________________________________________________
conv2d_9 (Conv2D)            (None, 64, 32, 32)        36928     
_________________________________________________________________
batch_normalization_9 (Batch (None, 64, 32, 32)        256       
_________________________________________________________________
p_re_lu_9 (PReLU)            (None, 64, 32, 32)        65536     
_________________________________________________________________
max_pooling2d_3 (MaxPooling2 (None, 64, 16, 16)        0         
_________________________________________________________________
conv2d_10 (Conv2D)           (None, 128, 16, 16)       73856     
_________________________________________________________________
batch_normalization_10 (Batc (None, 128, 16, 16)       512       
_________________________________________________________________
p_re_lu_10 (PReLU)           (None, 128, 16, 16)       32768     
_________________________________________________________________
conv2d_11 (Conv2D)           (None, 128, 16, 16)       147584    
_________________________________________________________________
batch_normalization_11 (Batc (None, 128, 16, 16)       512       
_________________________________________________________________
p_re_lu_11 (PReLU)           (None, 128, 16, 16)       32768     
_________________________________________________________________
conv2d_12 (Conv2D)           (None, 128, 16, 16)       147584    
_________________________________________________________________
batch_normalization_12 (Batc (None, 128, 16, 16)       512       
_________________________________________________________________
p_re_lu_12 (PReLU)           (None, 128, 16, 16)       32768     
_________________________________________________________________
max_pooling2d_4 (MaxPooling2 (None, 128, 8, 8)         0         
_________________________________________________________________
flatten_1 (Flatten)          (None, 8192)              0         
_________________________________________________________________
dense_1 (Dense)              (None, 1024)              8389632   
_________________________________________________________________
batch_normalization_13 (Batc (None, 1024)              4096      
_________________________________________________________________
p_re_lu_13 (PReLU)           (None, 1024)              1024      
_________________________________________________________________
dropout_1 (Dropout)          (None, 1024)              0         
_________________________________________________________________
dense_2 (Dense)              (None, 512)               524800    
_________________________________________________________________
batch_normalization_14 (Batc (None, 512)               2048      
_________________________________________________________________
dense_3 (Dense)              (None, 3)                 1539      
_________________________________________________________________
activation_1 (Activation)    (None, 3)                 0         
=================================================================
Total params: 10,890,179
Trainable params: 10,885,667
Non-trainable params: 4,512
_________________________________________________________________
Epoch 1/50

 1/10 [==>...........................] - ETA: 1:05 - loss: 4.8453 - acc: 0.7500
 2/10 [=====>........................] - ETA: 54s - loss: 4.7509 - acc: 0.8125 
 3/10 [========>.....................] - ETA: 47s - loss: 4.7917 - acc: 0.7917
…
10/10 [==============================] - 64s 6s/step - loss: 3.9819 - acc: 0.8688 - val_loss: 4.0394 - val_acc: 0.8594

/Users/peterullrich/GoogleDrive/SoftwareDevelopment/RuG/Machine-Learning/venv/bin/python /Users/peterullrich/GoogleDrive/SoftwareDevelopment/RuG/Machine-Learning/training.py
Using Theano backend.
Loading model...
Found 960 images belonging to 3 classes.
Found 963 images belonging to 3 classes.
_________________________________________________________________
Layer (type)                 Output Shape              Param #
=================================================================
conv2d_1 (Conv2D)            (None, 16, 128, 128)      448
_________________________________________________________________
batch_normalization_1 (Batch (None, 16, 128, 128)      64
_________________________________________________________________
p_re_lu_1 (PReLU)            (None, 16, 128, 128)      262144
_________________________________________________________________
conv2d_2 (Conv2D)            (None, 16, 128, 128)      2320
_________________________________________________________________
batch_normalization_2 (Batch (None, 16, 128, 128)      64
_________________________________________________________________
p_re_lu_2 (PReLU)            (None, 16, 128, 128)      262144
_________________________________________________________________
conv2d_3 (Conv2D)            (None, 16, 128, 128)      2320
_________________________________________________________________
batch_normalization_3 (Batch (None, 16, 128, 128)      64
_________________________________________________________________
p_re_lu_3 (PReLU)            (None, 16, 128, 128)      262144
_________________________________________________________________
max_pooling2d_1 (MaxPooling2 (None, 16, 64, 64)        0
_________________________________________________________________
conv2d_4 (Conv2D)            (None, 32, 64, 64)        4640
_________________________________________________________________
batch_normalization_4 (Batch (None, 32, 64, 64)        128
_________________________________________________________________
p_re_lu_4 (PReLU)            (None, 32, 64, 64)        131072
_________________________________________________________________
conv2d_5 (Conv2D)            (None, 32, 64, 64)        9248
_________________________________________________________________
batch_normalization_5 (Batch (None, 32, 64, 64)        128
_________________________________________________________________
p_re_lu_5 (PReLU)            (None, 32, 64, 64)        131072
_________________________________________________________________
conv2d_6 (Conv2D)            (None, 32, 64, 64)        9248
_________________________________________________________________
batch_normalization_6 (Batch (None, 32, 64, 64)        128
_________________________________________________________________
p_re_lu_6 (PReLU)            (None, 32, 64, 64)        131072
_________________________________________________________________
max_pooling2d_2 (MaxPooling2 (None, 32, 32, 32)        0
_________________________________________________________________
conv2d_7 (Conv2D)            (None, 64, 32, 32)        18496
_________________________________________________________________
batch_normalization_7 (Batch (None, 64, 32, 32)        256
_________________________________________________________________
p_re_lu_7 (PReLU)            (None, 64, 32, 32)        65536
_________________________________________________________________
conv2d_8 (Conv2D)            (None, 64, 32, 32)        36928
_________________________________________________________________
batch_normalization_8 (Batch (None, 64, 32, 32)        256
_________________________________________________________________
p_re_lu_8 (PReLU)            (None, 64, 32, 32)        65536
_________________________________________________________________
conv2d_9 (Conv2D)            (None, 64, 32, 32)        36928
_________________________________________________________________
batch_normalization_9 (Batch (None, 64, 32, 32)        256
_________________________________________________________________
p_re_lu_9 (PReLU)            (None, 64, 32, 32)        65536
_________________________________________________________________
max_pooling2d_3 (MaxPooling2 (None, 64, 16, 16)        0
_________________________________________________________________
conv2d_10 (Conv2D)           (None, 128, 16, 16)       73856
_________________________________________________________________
batch_normalization_10 (Batc (None, 128, 16, 16)       512
_________________________________________________________________
p_re_lu_10 (PReLU)           (None, 128, 16, 16)       32768
_________________________________________________________________
conv2d_11 (Conv2D)           (None, 128, 16, 16)       147584
_________________________________________________________________
batch_normalization_11 (Batc (None, 128, 16, 16)       512
_________________________________________________________________
p_re_lu_11 (PReLU)           (None, 128, 16, 16)       32768
_________________________________________________________________
conv2d_12 (Conv2D)           (None, 128, 16, 16)       147584
_________________________________________________________________
batch_normalization_12 (Batc (None, 128, 16, 16)       512
_________________________________________________________________
p_re_lu_12 (PReLU)           (None, 128, 16, 16)       32768
_________________________________________________________________
max_pooling2d_4 (MaxPooling2 (None, 128, 8, 8)         0
_________________________________________________________________
flatten_1 (Flatten)          (None, 8192)              0
_________________________________________________________________
dense_1 (Dense)              (None, 512)               4194816
_________________________________________________________________
batch_normalization_13 (Batc (None, 512)               2048
_________________________________________________________________
p_re_lu_13 (PReLU)           (None, 512)               512
_________________________________________________________________
dropout_1 (Dropout)          (None, 512)               0
_________________________________________________________________
dense_2 (Dense)              (None, 256)               131328
_________________________________________________________________
batch_normalization_14 (Batc (None, 256)               1024
_________________________________________________________________
dense_3 (Dense)              (None, 3)                 771
_________________________________________________________________
activation_1 (Activation)    (None, 3)                 0
=================================================================
Total params: 6,297,539
Trainable params: 6,294,563
Non-trainable params: 2,976
_________________________________________________________________
Epoch 1/100

 1/10 [==>...........................] - ETA: 1:11 - loss: 3.8978 - acc: 0.9375
 2/10 [=====>........................] - ETA: 58s - loss: 3.9728 - acc: 0.8594
 3/10 [========>.....................] - ETA: 50s - loss: 4.0458 - acc: 0.8333
…
