…
n/Machine-Learning-Project/venv/bin/python" "/media/Storage/Code/University/Machine Learning/python/Machine-Learning-Project/training.py"
Using Theano backend.
ERROR (theano.gpuarray): pygpu was configured but could not be imported or is too old (version 0.7 or higher required)
NoneType: None
Found 240 images belonging to 3 classes.
Found 243 images belonging to 3 classes.
_________________________________________________________________
Layer (type)                 Output Shape              Param #
=================================================================
conv2d_1 (Conv2D)            (None, 16, 254, 254)      448
_________________________________________________________________
batch_normalization_1 (Batch (None, 16, 254, 254)      64
_________________________________________________________________
p_re_lu_1 (PReLU)            (None, 16, 254, 254)      1032256
_________________________________________________________________
conv2d_2 (Conv2D)            (None, 16, 252, 252)      2320
_________________________________________________________________
batch_normalization_2 (Batch (None, 16, 252, 252)      64
_________________________________________________________________
p_re_lu_2 (PReLU)            (None, 16, 252, 252)      1016064
_________________________________________________________________
max_pooling2d_1 (MaxPooling2 (None, 16, 126, 126)      0
_________________________________________________________________
conv2d_3 (Conv2D)            (None, 32, 124, 124)      4640
_________________________________________________________________
batch_normalization_3 (Batch (None, 32, 124, 124)      128
_________________________________________________________________
p_re_lu_3 (PReLU)            (None, 32, 124, 124)      492032
_________________________________________________________________
conv2d_4 (Conv2D)            (None, 32, 122, 122)      9248
_________________________________________________________________
batch_normalization_4 (Batch (None, 32, 122, 122)      128
_________________________________________________________________
p_re_lu_4 (PReLU)            (None, 32, 122, 122)      476288
_________________________________________________________________
conv2d_5 (Conv2D)            (None, 32, 120, 120)      9248
_________________________________________________________________
batch_normalization_5 (Batch (None, 32, 120, 120)      128
_________________________________________________________________
p_re_lu_5 (PReLU)            (None, 32, 120, 120)      460800
_________________________________________________________________
max_pooling2d_2 (MaxPooling2 (None, 32, 60, 60)        0
_________________________________________________________________
conv2d_6 (Conv2D)            (None, 64, 58, 58)        18496
_________________________________________________________________
batch_normalization_6 (Batch (None, 64, 58, 58)        256
_________________________________________________________________
p_re_lu_6 (PReLU)            (None, 64, 58, 58)        215296
_________________________________________________________________
conv2d_7 (Conv2D)            (None, 64, 56, 56)        36928
_________________________________________________________________
batch_normalization_7 (Batch (None, 64, 56, 56)        256
_________________________________________________________________
p_re_lu_7 (PReLU)            (None, 64, 56, 56)        200704
_________________________________________________________________
conv2d_8 (Conv2D)            (None, 64, 54, 54)        36928
_________________________________________________________________
batch_normalization_8 (Batch (None, 64, 54, 54)        256
_________________________________________________________________
p_re_lu_8 (PReLU)            (None, 64, 54, 54)        186624
_________________________________________________________________
max_pooling2d_3 (MaxPooling2 (None, 64, 27, 27)        0
_________________________________________________________________
conv2d_9 (Conv2D)            (None, 128, 25, 25)       73856
_________________________________________________________________
batch_normalization_9 (Batch (None, 128, 25, 25)       512
_________________________________________________________________
p_re_lu_9 (PReLU)            (None, 128, 25, 25)       80000
_________________________________________________________________
conv2d_10 (Conv2D)           (None, 128, 23, 23)       147584
_________________________________________________________________
batch_normalization_10 (Batc (None, 128, 23, 23)       512
_________________________________________________________________
p_re_lu_10 (PReLU)           (None, 128, 23, 23)       67712
_________________________________________________________________
conv2d_11 (Conv2D)           (None, 128, 21, 21)       147584
_________________________________________________________________
batch_normalization_11 (Batc (None, 128, 21, 21)       512
_________________________________________________________________
p_re_lu_11 (PReLU)           (None, 128, 21, 21)       56448
_________________________________________________________________
max_pooling2d_4 (MaxPooling2 (None, 128, 10, 10)       0
_________________________________________________________________
conv2d_12 (Conv2D)           (None, 256, 8, 8)         295168
_________________________________________________________________
batch_normalization_12 (Batc (None, 256, 8, 8)         1024
_________________________________________________________________
p_re_lu_12 (PReLU)           (None, 256, 8, 8)         16384
_________________________________________________________________
conv2d_13 (Conv2D)           (None, 256, 6, 6)         590080
_________________________________________________________________
batch_normalization_13 (Batc (None, 256, 6, 6)         1024
_________________________________________________________________
p_re_lu_13 (PReLU)           (None, 256, 6, 6)         9216
_________________________________________________________________
conv2d_14 (Conv2D)           (None, 256, 4, 4)         590080
_________________________________________________________________
batch_normalization_14 (Batc (None, 256, 4, 4)         1024
_________________________________________________________________
p_re_lu_14 (PReLU)           (None, 256, 4, 4)         4096
_________________________________________________________________
max_pooling2d_5 (MaxPooling2 (None, 256, 2, 2)         0
_________________________________________________________________
dropout_1 (Dropout)          (None, 256, 2, 2)         0
_________________________________________________________________
flatten_1 (Flatten)          (None, 1024)              0
_________________________________________________________________
dense_1 (Dense)              (None, 3)                 3075
_________________________________________________________________
batch_normalization_15 (Batc (None, 3)                 12
_________________________________________________________________
p_re_lu_15 (PReLU)           (None, 3)                 3
_________________________________________________________________
dropout_2 (Dropout)          (None, 3)                 0
_________________________________________________________________
dense_2 (Dense)              (None, 3)                 12
_________________________________________________________________
batch_normalization_16 (Batc (None, 3)                 12
_________________________________________________________________
activation_1 (Activation)    (None, 3)                 0
=================================================================
Total params: 6,285,530
Trainable params: 6,282,574
Non-trainable params: 2,956
_________________________________________________________________
WARNING (theano.tensor.blas): We did not find a dynamic library in the library_dir of the library we use for blas. If you use ATLAS, make sure to compile it with dynamics library.
Epoch 1/50
…
